model/BreastCancerNN.pth (torch, 1666 bytes, 1 tensors)

layer_1.weight f4 [1, 30]
000000 f0 21 c5 be 6b 09 5b be d5 36 07 be fb 56 dd be
       -0.38502455 -0.21390311 -0.1320451 -0.43230423
000010 56 45 d3 bd bf c3 2c be d1 6a 00 be f9 84 8e be
       -0.10315959 -0.16871546 -0.12540747 -0.27835825
000020 85 52 d6 bd 2d 99 d0 3d 17 02 26 be eb 49 de 3d
       -0.10464958 0.10185466 -0.16211735 0.108539425
000030 0a d3 bb be c4 06 82 be dc 76 a9 bd fa 50 09 3d
       -0.36684448 -0.25395787 -0.08274624 0.03352449
000040 70 24 23 bd d1 20 85 bc cf 5c 04 3d 3f ef 95 3d
       -0.03982967 -0.016251 0.03231507 0.07321023
000050 09 11 bb be d7 c5 e3 be d2 5c 93 be cc ea fb be
       -0.36536434 -0.44486877 -0.28781754 -0.49202573
000060 89 4f 1d be ce c7 c2 be 9b c2 e6 bd 7f b8 8a be
       -0.15362372 -0.38043064 -0.11267587 -0.27093884
000070 a9 2e b0 be 67 de 85 bd
       -0.344106 -0.065365605
